other-classification/betawi_word_model.tflite (tflite, 267288 bytes, 4 tensors)

arith.constant f4 [1, 32]
0	0x3e60f5e4	0.219688
1	0x3dddf409	0.10837562
2	0xbf014102	-0.5048982
3	0x3efd723b	0.49501213
4	0x3e722097	0.23645245
5	0x3e96cfde	0.29455465
6	0x3d2cd1e6	0.042192362
7	0x3e8c173d	0.2736148
8	0x3e1df977	0.15427195
9	0xbed98341	-0.4248295
10	0xbef5327d	-0.47890082
11	0x3e0a0fb4	0.13482553
12	0x3e52ed50	0.2059834
13	0x3ed24b25	0.41072956
14	0x3ec77c5a	0.3896206
15	0x3e1ff464	0.15620571
16	0x3c70374b	0.01466162
17	0x3d7b48f0	0.061348855
18	0xbe2f7f04	-0.17138296
19	0xbefa9da7	-0.48948404
20	0xbe89e199	-0.2692993
21	0x3e5de2d5	0.21668561
22	0x3d99fe6a	0.07519229
23	0x3ed2735a	0.4110363
24	0x3f03afa8	0.51439905
25	0xbeab46dd	-0.33452502
26	0xbea6bc63	-0.32565603
27	0x3d7a2c18	0.061077207
28	0xbea55090	-0.32288027
29	0xbeec1d69	-0.46116188
30	0x3d398fdc	0.04530321
31	0x3eff0235	0.4980637

arith.constant1 f4 [32, 64]
0	0x3e40a5b8	0.18813217
1	0x3df9c435	0.12195627
2	0xbe1abe2f	-0.15111612
3	0x3e5cf2f6	0.21577057
4	0x3e178f4d	0.14800759
5	0xbda54dc9	-0.08071477
6	0x3dc94769	0.098280735
7	0xbe0519a5	-0.12998064
8	0xbe311d9c	-0.17296451
9	0x3da8faa9	0.08250935
10	0x3d8bd176	0.06827061
11	0x3cac5d5d	0.021040613
12	0x3da3012d	0.07959209
13	0xbe3d4cec	-0.18486375
14	0xbbdf13e9	-0.0068077934
15	0x3cf9f169	0.030510621
16	0x3e0e9cc9	0.13926996
17	0xbdd1c736	-0.102430746
18	0x3e48dd28	0.19615614
19	0x3dd588ad	0.104264595
20	0xbe77ff5b	-0.24218504
21	0x3e30cb89	0.17265143
22	0x3ca5d115	0.0202413
23	0x3dcd98b0	0.100388885
24	0x3c9a9d5a	0.01887386
25	0x3e65eb9d	0.2245316
26	0xbde6750a	-0.11252792
27	0x3e31195d	0.17294832
28	0xbd55eb1a	-0.052226163
29	0x3d1cbb59	0.038264606
30	0xbb961b10	-0.004580863
31	0x3c2be582	0.010491731
32	0xbe247255	-0.16059239
33	0xbcb274a8	-0.021784142
34	0x3de68717	0.11256235
35	0x3e2404f8	0.1601752
36	0x3e2fa3d9	0.17152347
37	0x3e57c632	0.210717
38	0x3e39437c	0.1809215
39	0xbe48a3c7	-0.19593726
40	0xbdd886e5	-0.10572604
41	0xbc7b0516	-0.015321037
42	0xbd9ac858	-0.07557744
43	0xbd8ad248	-0.06778389
44	0x3e6b00ea	0.22949567
45	0xbe78930f	-0.24274848
46	0x3c9076bc	0.017634742
47	0x3e76407b	0.24048035
48	0x3e3b932e	0.18317863
49	0xbb6a72ec	-0.0035774065
50	0xbd03242e	-0.032016926
51	0xbdfd124b	-0.12357005
52	0x3e73092b	0.23733966
53	0x3e2e4569	0.17018665
54	0xbe666ad4	-0.22501689
55	0xbd62f96b	-0.055413645
56	0xbe02e0ff	-0.12781142
57	0x3da031f0	0.07822025
58	0x3e1321e3	0.14368396
59	0x3bbaf538	0.005705502
60	0x3e3c8207	0.18408976
61	0x3dc23038	0.09481853
62	0x3dde3da1	0.108515985
63	0x3d6a6e8d	0.057234336
64	0xbdc801c8	-0.09765965
65	0x3dbef7f6	0.093246385
66	0xbdc14964	-0.09437826
67	0x3e2d46ff	0.16921614
68	0x3e694bad	0.22782774
69	0x3da30fb5	0.0796198
70	0x3d1c7a3f	0.03820252
71	0xbe5ce966	-0.2157341
72	0x3d5cc507	0.053898837
73	0x3d88a387	0.06671815
74	0x3e0c986f	0.13730024
75	0x3d87260c	0.06599054
76	0xbd0330f8	-0.032029122
77	0x3dc3b180	0.0955534
78	0x3de2f110	0.11081135
79	0xbda18c49	-0.078880854
80	0x3e61baa6	0.22043857
81	0xbc04c8b0	-0.008104488
82	0xbe16635a	-0.14686337
83	0xbd505698	-0.050863832
84	0x3e4df70c	0.20113772
85	0x3e7afc73	0.24510364
86	0xbdf51801	-0.11967469
87	0xbe234687	-0.15944873
88	0x3e7729fd	0.24137111
89	0x3e0ba032	0.13635328
90	0xbe531d9c	-0.20616764
91	0xbe23fe88	-0.16015065
92	0xbd309b53	-0.04311688
93	0x3d140833	0.036140632
94	0x3d883e7f	0.06652545
95	0x3e28baef	0.1647756
96	0xbe4af3f5	-0.19819625
97	0x3e1f8182	0.15576747
98	0x3e3915ed	0.1807477
99	0x3d95507f	0.07290744
100	0x3e28ceec	0.16485184
101	0xbc871aa6	-0.0164922
102	0xbe780cf1	-0.24223687
103	0x3e4b9210	0.19879937
104	0x3dd6a289	0.1048022
105	0x3cd55e77	0.02604602
106	0xbd92ffba	-0.07177682
107	0xbcd53812	-0.026027713
108	0xbda2f5b7	-0.07957023
109	0x3db80451	0.08985198
110	0x3dedc1f7	0.116092615
111	0x3dc60d96	0.0967056
112	0xbe24e3ce	-0.16102526
113	0xbd591604	-0.05299951
114	0x3dd4bfe9	0.103881665
115	0xbc2efd84	-0.01068056
116	0x3e21edc3	0.15813355
117	0xbd43b18a	-0.047776736
118	0xbe53fb47	-0.20701323
119	0x3e249118	0.16070974
120	0x3df18848	0.11793572
121	0xbe2e6b84	-0.17033201
122	0x3e22536e	0.15852138
123	0x3e78cfef	0.2429807
124	0x3dc37929	0.09544594
125	0xbd282cc2	-0.04105831
126	0xbe1c6cc7	-0.1527587
127	0x3e7e8cce	0.248584
128	0xbdf8ba2e	-0.12144886
129	0x3d9fac9f	0.07796597
130	0x3ea9dbc4	0.3317548
131	0xbe7f516c	-0.24933404
132	0xbd24d621	-0.04024327
133	0xbc83fa69	-0.016110616
134	0xbe2bd2c5	-0.16779621
135	0xbd22f3ca	-0.039783277
136	0x3d92ac17	0.0716173
137	0x3eb86ec2	0.36022002
138	0xbd0bfa69	-0.034174357
139	0x3e550bf3	0.2080534
140	0xbe914641	-0.28373912
141	0xbe231c4d	-0.15928765
142	0xbe6ea26a	-0.23304144
143	0xbe22c65f	-0.15895985
144	0x3e854ee2	0.26036745
145	0xbcc4b8a9	-0.024013834
146	0x3e41debd	0.18932624
147	0x3e9f09f4	0.3106228
148	0xbf198d30	-0.5998106
149	0x3d93075d	0.07179139
150	0x3e562cd5	0.2091554
151	0x3dcf0838	0.101089895
152	0x3ea31ab3	0.31856307
153	0x3e4ee5e6	0.20204887
154	0xbd8f81ae	-0.07007156
155	0xbd97b025	-0.07406644
156	0x3e97d832	0.2965713
157	0x3e88bb85	0.26705566
158	0x3e1a357a	0.15059462
159	0x3e1000ac	0.14062756
160	0xbe899144	-0.2686864
161	0x3b4145b3	0.0029491007
162	0xbec19ed8	-0.378165
163	0xbe808b51	-0.2510629
164	0xbe910b6f	-0.28329036
165	0xbeab0574	-0.33402598
166	0x3f099bde	0.5375346
167	0x3e9e2827	0.3089001
168	0xbe60e967	-0.21964036
169	0xbe7ff383	-0.24995236
170	0xbe6ce9f3	-0.2313612
171	0x3e932e52	0.28746277
172	0xbea81f1d	-0.32836238
173	0xbc3f5ca3	-0.011679801
174	0xbe997d38	-0.29978347
175	0xbe17f540	-0.14839649
176	0x3f000563	0.5000822
177	0xbd080528	-0.033208042
178	0xbe9fee7e	-0.31236643
179	0x3df78df6	0.12087624
180	0x3e8631a9	0.26209763
181	0x3d6d5709	0.05794433
182	0x3ea20c3b	0.31649956
183	0xbe999411	-0.29995778
184	0x3ed92f2b	0.424188
185	0xbea112e7	-0.31459734
186	0xbdba9be6	-0.091117665
187	0xbcd780ba	-0.026306499
188	0xbe9ca97e	-0.30598062
189	0xbd266695	-0.040625174
190	0xbed23c15	-0.41061464
191	0xbde0cd7f	-0.10976695
192	0xbe3a20f8	-0.18176639
193	0x3e3d75f1	0.18502022
194	0xbe7f9852	-0.2496045
195	0xbdfce829	-0.123489685
196	0x3daf9b0e	0.08574496
197	0x3e9da76d	0.30791798
198	0xbc5f5052	-0.01362999
199	0x3e642e95	0.22283395
200	0xbe2cb3c9	-0.16865458
201	0xbebbe66f	-0.36699244
202	0xbe2c2c19	-0.16813697
203	0xbe758c43	-0.23979287
204	0x3ed043d9	0.40676764
205	0xbdc2b81f	-0.095077746
206	0x3ee85784	0.4537927
207	0x3e72d754	0.23714954
208	0xbe7b45fe	-0.24538419
209	0xbd1fdaf5	-0.039027173
210	0xbe8f0089	-0.27930096
211	0xbe1c5e81	-0.15270425
212	0x3e3290a5	0.1743799
213	0xbdb57a54	-0.08861223
214	0xbe224084	-0.15844923
215	0x3d0e4c08	0.034740478
216	0xbed4c0c9	-0.41553333
217	0xbe88e93f	-0.26740453
218	0x3e9a4107	0.30127737
219	0xbe13acfe	-0.1442146
220	0xbe9e1887	-0.30878088
221	0xbe1395d6	-0.14412627
222	0x3dd0a215	0.10187165
223	0xbebd7cc1	-0.37009242
224	0xbe448683	-0.19191937
225	0xbebec38d	-0.37258568
226	0x3f11af65	0.56908256
227	0x3dfa330b	0.12216767
228	0xbdd140d6	-0.102174446
229	0x3e872c3f	0.26400945
230	0xbe2d67f7	-0.1693419
231	0xbe87359b	-0.26408085
232	0x3e3edced	0.18638964
233	0x3e165304	0.14680105
234	0xbe38a865	-0.18032987
235	0xbeeb29eb	-0.45930418
236	0xbd224386	-0.039615177
237	0xbeca1169	-0.39466408
238	0x3e468da6	0.19389972
239	0x3eac6675	0.3367192
240	0xbe4c2d18	-0.19939077
241	0xbc934fbc	-0.017982356
242	0x3e55d9c8	0.20883858
243	0x3dfcdc11	0.12346662
244	0xbd65bcbe	-0.0560882
245	0x3db66893	0.08906665
246	0x3e26ae56	0.16277441
247	0x3d4d09bc	0.05005811
248	0xbdb7ebd6	-0.08980529
249	0xbdc60609	-0.0966912
250	0xbe1f6c3c	-0.15568632
251	0x3e340599	0.1758026
252	0x3e4b846b	0.19874732
253	0xbdecba8a	-0.11559017
254	0x3ecbbd01	0.39792636
255	0x3e772a3a	0.24137202

arith.constant2 f4 [1000, 64]
0	0xbe27cf7e	-0.16387746
1	0x3cbf5451	0.023355635
2	0x3d44ec74	0.04807706
3	0x3d095837	0.033531394
4	0x3d016ac7	0.03159597
5	0x3d7b043c	0.061283335
6	0xbdb95439	-0.09049267
7	0xbdb231cf	-0.087009065
8	0x3e13ae9c	0.14422077
9	0xbd0f31f9	-0.034959767
10	0xbead3b7a	-0.3383444
11	0x3d41b5b8	0.04729244
12	0x3d31fd8f	0.043454703
13	0xbd244136	-0.040101252
14	0x3d70bf6f	0.058776315
15	0x3a3641ce	0.00069525547
16	0xbcfdfab3	-0.031003332
17	0xbc123c04	-0.008925442
18	0x3e10a5e7	0.14125787
19	0x3e0b28fb	0.13589852
20	0x3c6a4ef4	0.01430105
21	0xbe44163f	-0.19149111
22	0x3e2a91c9	0.16657175
23	0x3e00f3c3	0.12592988
24	0xbd6f4f74	-0.05842538
25	0xbd8ac74e	-0.067762956
26	0x3c91ddc0	0.017805934
27	0xbcd3fb16	-0.025876563
28	0xbd63b9f5	-0.055597264
29	0x3d9d1abb	0.07671114
30	0x3e10a27a	0.1412448
31	0xbde59fca	-0.11212118
32	0xbe23b57e	-0.15987203
33	0xbe2dcb02	-0.16971973
34	0x3d958ce1	0.07302261
35	0x3d2a45f8	0.041570634
36	0xbe276013	-0.16345243
37	0xbd9108ba	-0.070817426
38	0xbc9d1a47	-0.01917757
39	0x3d90e6cd	0.07075272
40	0xbbfb26a0	-0.0076645166
41	0x3cd7a273	0.026322579
42	0xbe96928e	-0.29408687
43	0xbd407674	-0.046987966
44	0xbd8407cd	-0.064468004
45	0xbdd4debc	-0.10394046
46	0xbd897da2	-0.06713416
47	0x3b41d600	0.0029577017
48	0x3c8463c8	0.01616086
49	0xbdd90a2e	-0.10597645
50	0xbd6b7a46	-0.057489656
51	0x3e499dc6	0.19689092
52	0x3dbde325	0.0927184
53	0xbd8721d1	-0.06598247
54	0x3d9d3851	0.07676757
55	0xbcd76f8c	-0.026298307
56	0xbd3f0d13	-0.046643328
57	0xbe416be2	-0.1888881
58	0xbe3192ad	-0.17341109
59	0xbdb750f9	-0.08950991
60	0xbddeded9	-0.108823486
61	0x3d9bbb5e	0.07604097
62	0x3d47612b	0.04867665
63	0xbd8238b7	-0.06358474
64	0x3bcd77e8	0.0062703975
65	0xbd0c98e4	-0.034325495
66	0x3d1e50a3	0.03865112
67	0x3cb50446	0.022096764
68	0x3cbaf162	0.022820178
69	0x3d38b677	0.045095887
70	0x3d07565d	0.033041347
71	0xbcc22e60	-0.023703754
72	0xbb1ba230	-0.0023747794
73	0xbd12e22d	-0.03586023
74	0x3d2be5b7	0.04196712
75	0xbc512028	-0.012764014
76	0xbce22a80	-0.027608156
77	0xbccff300	-0.025384426
78	0x3c9812f2	0.018563721
79	0x3d14b007	0.036300685
80	0x3bac8418	0.0052647702
81	0x3c762784	0.01502407
82	0xbcb9c073	-0.022674775
83	0xbcc7aeba	-0.024375308
84	0xbcf7dd9a	-0.030257035
85	0x3d086df3	0.03330798
86	0x3cd76e82	0.026297811
87	0xbd04a804	-0.032386795
88	0x3d379819	0.044822786
89	0x3c933952	0.017971668
90	0x3d115be3	0.03548802
91	0x3ca6bbc2	0.020353202
92	0x3cb8e37a	0.022569407
93	0x3d24a1a3	0.04019321
94	0xbcb74f2d	-0.022376621
95	0x3c9dd126	0.019264769
96	0xbd12f3f0	-0.03587717
97	0x3c9f1b72	0.019422267
98	0x3d01f797	0.03173026
99	0x3c109bcc	0.008826207
100	0x3c9c2a62	0.019063178
101	0x3ccfb14e	0.0253531
102	0x3cd46192	0.025925431
103	0xbcbda44d	-0.023149634
104	0x3c9b7fee	0.0189819
105	0x3d190851	0.037361447
106	0x3a8b4600	0.001062572
107	0xbd20e35d	-0.03927933
108	0xbcb16e47	-0.02165903
109	0x3c4761f4	0.01216935
110	0x3cdd76fa	0.027034272
111	0x3d2ba80d	0.041908313
112	0x3d499ea9	0.049223576
113	0x3d386f33	0.045027923
114	0x3cbb2d62	0.022848789
115	0xbcd49700	-0.025950909
116	0x3cdf1d32	0.027235601
117	0xbce6a9ad	-0.02815708
118	0xbc9ed5d3	-0.019389069
119	0xbc95d7ac	-0.018291317
120	0xbd01906d	-0.031631876
121	0x3d181499	0.03712902
122	0x3c543504	0.012952093
123	0xbc4d4e40	-0.012530863
124	0xbd11cb50	-0.035594285
125	0x3c402774	0.011728156
126	0xbd2ef603	-0.042715084
127	0x3c9e5cfa	0.019331444
128	0xbf5470e1	-0.8298474
129	0xbf6faf16	-0.93626535
130	0x3f3a26bd	0.7271536
131	0xbf61f9ab	-0.8827159
132	0x3f50b05a	0.8151909
133	0xbf7b6bcd	-0.98211366
134	0xbf4c3f1a	-0.79783785
135	0xbf41211c	-0.75441146
136	0x3f374991	0.7159663
137	0x3f815031	1.0102597
138	0xbf61bd21	-0.8817921
139	0x3f4f7df5	0.8105157
140	0xbf90fc19	-1.1326934
141	0xbf50f726	-0.8162712
142	0xbf86a51d	-1.0519139
143	0xbf5783e0	-0.841856
144	0x3f820dda	1.0160477
145	0x3f682656	0.90683496
146	0x3f4a45e0	0.7901287
147	0x3f3a4f70	0.7277746
148	0xbf8a01c0	-1.0781784
149	0xbf47ab45	-0.7799571
150	0x3f40c87c	0.75305915
151	0x3f4b0825	0.793093
152	0x3f8b6e6c	1.0893073
153	0x3f858083	1.0429844
154	0xbf7fd7bc	-0.9993856
155	0xbf2d204b	-0.676274
156	0x3f4c9f3c	0.7993047
157	0x3f542ecb	0.828839
158	0x3f49184f	0.78552717
159	0x3f7c1a6c	0.98477817
160	0xbf2e89e4	-0.68179154
161	0x3f754c6e	0.9581975
162	0xbf84fcba	-1.0389626
163	0xbf607b26	-0.8768791
164	0xbf2c8b97	-0.674005
165	0xbf4f80f7	-0.8105616
166	0x3f88a135	1.0674196
167	0x3f3a6037	0.7280306
168	0xbf82cf82	-1.0219576
169	0xbf7abee6	-0.9794754
170	0xbf333cb4	-0.700145
171	0x3f708fef	0.93969625
172	0xbf51d7a5	-0.8196967
173	0x3f8009ef	1.0003031
174	0xbf343015	-0.7038587
175	0xbf655e46	-0.89596975
176	0x3f6d128a	0.92606413
177	0xbf3fcf5e	-0.7492579
178	0xbf831968	-1.0242128
179	0x3f3786f0	0.71690273
180	0x3f53c63e	0.8272437
181	0xbf5f1deb	-0.87155026
182	0x3f55efd6	0.83569086
183	0xbf45ee95	-0.7731717
184	0x3f806d96	1.0033443
185	0xbf44a194	-0.7680905
186	0xbf480339	-0.7812992
187	0xbf4b02e4	-0.79301286
188	0xbf3f581c	-0.7474382
189	0xbf5fe043	-0.8745157
190	0xbf6e9fb3	-0.9321243
191	0xbf445e2d	-0.767062
192	0xbe1a1c43	-0.15049843
193	0xbdc2c441	-0.09510089
194	0x3df629c6	0.120196864
195	0xbe114720	-0.14187288
196	0x3dc8a7ac	0.09797606
197	0xbde3d5a3	-0.11124732
198	0xbdca2f7d	-0.09872339
199	0xbd8d13b9	-0.068885274
200	0x3db11a43	0.08647587
201	0x3e36168c	0.17782038
202	0xbda87235	-0.08224908
203	0x3e200bb4	0.15629464
204	0xbe3ab1c4	-0.18231875
205	0xbdae2f1c	-0.08505079
206	0xbe388944	-0.18021113
207	0xbe209d2f	-0.15684961
208	0x3dc96063	0.098328374
209	0x3e2f1ce7	0.17100869
210	0x3dd08cee	0.1018313
211	0x3e1acb07	0.15116511
212	0xbe0e64fa	-0.13905707
213	0xbe0d16cf	-0.13778232
214	0x3e05b155	0.13055928
215	0x3def2484	0.11676887
216	0x3e3fe1e5	0.18738516
217	0x3e3f4fb9	0.18682756
218	0xbe1f2764	-0.1554237
219	0xbe16b40e	-0.14717123
220	0x3e022da7	0.12712727
221	0x3da0c069	0.07849199
222	0x3dbf070f	0.09327518
223	0x3e4f122c	0.20221776
224	0xbdfbfd8c	-0.123042196
225	0x3e361788	0.17782414
226	0xbddca0ff	-0.10772895
227	0xbe34008a	-0.1757833
228	0xbdc3dd62	-0.0956371
229	0xbe082209	-0.13294233
230	0x3df96976	0.12178318
231	0x3e197cd9	0.14989032
232	0xbe1fa1af	-0.15589021
233	0xbdbf9265	-0.093540944
234	0xbdf968c6	-0.12178187
235	0x3e1551e6	0.14582023
236	0xbdfa68f4	-0.122270495
237	0x3e2f77b5	0.17135508
238	0xbda1d4db	-0.07901927
239	0xbdb7bae7	-0.08971196
240	0x3e2043b9	0.15650834
241	0xbdb5642d	-0.08856998
242	0xbdd81b0f	-0.10552036
243	0x3de3dc72	0.11126031
244	0x3e02b2a1	0.12763454
245	0xbe13b88c	-0.14425868
246	0x3dd5f069	0.10446245
247	0xbe0c6541	-0.137105
248	0x3e42ba2d	0.19016333
249	0xbdd7b7f2	-0.10533132
250	0xbdd4a31c	-0.10382673
251	0xbdc45b9b	-0.09587785
252	0xbd8ff76f	-0.07029616
253	0xbde315fd	-0.11088178
254	0xbdd25e6e	-0.10271917
255	0xbe098bbf	-0.13432215

arith.constant3 f4 [32]
0	0xbbc4c812	-0.0060052956
1	0xbbdacf8b	-0.006677573
2	0x3d41c5c7	0.047307756
3	0xbc5c98c4	-0.013464157
4	0x3ce1d5d7	0.027567787
5	0x00000000	0.0
6	0xbcaa89e4	-0.020817704
7	0xbb8aed85	-0.0042397403
8	0xbcab3ce2	-0.020903055
9	0x3d7e0079	0.06201217
10	0x3d5dd87b	0.05416153
11	0x00000000	0.0
12	0xbc00c126	-0.00785855
13	0x3da4f300	0.08054161
14	0x3d500dc9	0.050794397
15	0xbc00ba3d	-0.007856903
16	0xbc423210	-0.011852756
17	0x00000000	0.0
18	0x00000000	0.0
19	0x3d41ebd8	0.04734406
20	0x3d87d4f2	0.06632413
21	0xbbc4c80b	-0.0060052923
22	0xbc42417f	-0.011856436
23	0x00000000	0.0
24	0x3d5bb662	0.05364073
25	0x3d4b89f4	0.04969211
26	0x3d618dd1	0.055066887
27	0xbc786394	-0.01516046
28	0x3d9f43bc	0.07776591
29	0x3d545904	0.051842704
30	0xbca77185	-0.020439873
31	0x3d0faf43	0.035079252
